 
# Ultralytics YOLO 🚀, GPL-3.0 license

 # Parameters
nc: 5  # number of classes
depth_multiple: 0.33  # scales module repeats
width_multiple: 0.50  # scales convolution channels

# YOLOv8.0s backbone
backbone:
  # [from, repeats, module, args]
  - [ -1, 1, Conv, [ 64, 3, 2 ] ]  # 0-P1/2
  - [ -1, 1, Conv, [ 128, 3, 2 ] ]  # 1-P2/4
  - [ -1, 3, C2f, [ 128, True ] ]
  - [ -1, 1, Conv, [ 256, 3, 2 ] ]  # 3-P3/8
  - [ -1, 6, C2f, [ 256, True ] ]
  - [ -1, 1, Conv, [ 512, 3, 2 ] ]  # 5-P4/16
  - [ -1, 6, C2f, [ 512, True ] ]
  - [ -1, 1, Conv, [ 1024, 3, 2 ] ]  # 7-P5/32
  - [ -1, 3, C2f, [ 1024, True ] ]
  - [ -1, 1, SPPF, [ 1024, 5 ] ]  # 9
  - [-1, 1,  ShuffleAttention, [16, 8]] # 10

# YOLOv8.0s head
head:
  - [ -1, 1, nn.Upsample, [ None, 2, 'nearest' ] ]
  - [ [ -1, 6 ], 1, Concat_BiFPN, [ 1 ] ]  # cat backbone P4
  - [ -1, 3, C2f_SE, [ 512 ] ]  # 13

  - [ -1, 1, nn.Upsample, [ None, 2, 'nearest' ] ]
  - [ [ -1, 4 ], 1, Concat_BiFPN, [ 1 ] ]  # cat backbone P3
  - [ -1, 3, C2f, [ 256 ] ]  # 16(P3/8-small)

  - [ -1, 1, nn.Upsample, [ None, 2, 'nearest' ] ]
  - [ [ -1, 2 ], 1, Concat_BiFPN, [ 1 ] ]  # cat backbone P3
  - [ -1, 3, C2f, [ 128 ] ]  # 19 (P4/16-medium)

  - [ -1, 1, Conv, [ 256, 3, 2 ] ]
  - [ [ -1, 16 ], 1, Concat_BiFPN, [ 1 ] ]  # cat head P4
  - [ -1, 3, C2f, [ 256 ] ]  # 22 (P4/16-medium)

  - [ -1, 1, Conv, [ 512, 3, 2 ] ]
  - [ [ -1, 13 ], 1, Concat_BiFPN, [ 1 ] ]  # cat head P5
  - [ -1, 3, C2f, [ 512 ] ]  # 25 (P5/32-large)


  - [ -1, 1, Conv, [ 512, 3, 2 ] ]
  - [ [ -1, 10 ], 1, Concat_BiFPN, [ 1 ] ]  # cat head P5
  - [ -1, 3, C2f, [ 1024 ] ]  # 29(P5/32-large)

  - [ [ 19, 22, 25, 28 ], 1, Detect, [ nc ] ]  # Detect(P3, P4, P5)